…
The number of inters: 4082
The sparsity of the dataset: 95.10962022283455%
Remain Fields: ['user_id', 'item_id', 'rating', 'timestamp']
Fri 21 Feb 2025 11:42:28 INFO  [Training]: train_batch_size = [2048] train_neg_sample_args: [{'distribution': 'none', 'sample_num': 'none', 'alpha': 'none', 'dynamic': False, 'candidate_num': 0}]
Fri 21 Feb 2025 11:42:28 INFO  [Evaluation]: eval_batch_size = [4096] eval_args: [{'split': {'RS': [0.8, 0.1, 0.1]}, 'order': 'RO', 'group_by': None, 'mode': {'valid': 'labeled', 'test': 'labeled'}}]
Fri 21 Feb 2025 11:42:28 INFO  NFM(
  (token_embedding_table): FMEmbedding(
    (embedding): Embedding(1067, 10)
  )
  (first_order_linear): FMFirstOrderLinear(
    (token_embedding_table): FMEmbedding(
      (embedding): Embedding(1067, 1)
    )
  )
  (fm): BaseFactorizationMachine()
  (bn): BatchNorm1d(10, eps=1e-05, momentum=0.1, affine=True, track_running_stats=True)
  (mlp_layers): MLPLayers(
    (mlp_layers): Sequential(
      (0): Dropout(p=0.0, inplace=False)
      (1): Linear(in_features=10, out_features=64, bias=True)
      (2): BatchNorm1d(64, eps=1e-05, momentum=0.1, affine=True, track_running_stats=True)
      (3): Sigmoid()
      (4): Dropout(p=0.0, inplace=False)
      (5): Linear(in_features=64, out_features=64, bias=True)
      (6): BatchNorm1d(64, eps=1e-05, momentum=0.1, affine=True, track_running_stats=True)
      (7): Sigmoid()
      (8): Dropout(p=0.0, inplace=False)
      (9): Linear(in_features=64, out_features=64, bias=True)
      (10): BatchNorm1d(64, eps=1e-05, momentum=0.1, affine=True, track_running_stats=True)
      (11): Sigmoid()
    )
  )
  (predict_layer): Linear(in_features=64, out_features=1, bias=False)
  (sigmoid): Sigmoid()
  (loss): BCEWithLogitsLoss()
)
Trainable parameters: 21230
Fri 21 Feb 2025 11:42:38 INFO  ['/opt/anaconda3/envs/recsys/lib/python3.10/site-packages/ipykernel_launcher.py', '--f=/Users/danielpenchev/Library/Jupyter/runtime/kernel-v32eaace8a7e8392ae2e21057923c8a41ccdf857ae.json']
Fri 21 Feb 2025 11:42:38 INFO  
General Hyper Parameters:
…
Average actions of items: 48.595238095238095
The number of inters: 4082
The sparsity of the dataset: 95.10962022283455%
Remain Fields: ['user_id', 'item_id']
Fri 21 Feb 2025 12:08:24 INFO  [Training]: train_batch_size = [2048] train_neg_sample_args: [{'distribution': 'uniform', 'sample_num': 1, 'alpha': 1.0, 'dynamic': False, 'candidate_num': 0}]
Fri 21 Feb 2025 12:08:24 INFO  [Evaluation]: eval_batch_size = [4096] eval_args: [{'split': {'RS': [0.8, 0.1, 0.1]}, 'order': 'RO', 'group_by': 'user', 'mode': {'valid': 'full', 'test': 'full'}}]
Fri 21 Feb 2025 12:08:24 INFO  NeuMF(
  (user_mf_embedding): Embedding(982, 64)
  (item_mf_embedding): Embedding(85, 64)
  (user_mlp_embedding): Embedding(982, 64)
  (item_mlp_embedding): Embedding(85, 64)
  (mlp_layers): MLPLayers(
    (mlp_layers): Sequential(
      (0): Dropout(p=0.1, inplace=False)
      (1): Linear(in_features=128, out_features=128, bias=True)
      (2): ReLU()
      (3): Dropout(p=0.1, inplace=False)
      (4): Linear(in_features=128, out_features=64, bias=True)
      (5): ReLU()
    )
  )
  (predict_layer): Linear(in_features=128, out_features=1, bias=True)
  (sigmoid): Sigmoid()
  (loss): BCEWithLogitsLoss()
)
Trainable parameters: 161473
Fri 21 Feb 2025 12:08:24 INFO  FLOPs: 24960.0
Fri 21 Feb 2025 12:08:24 INFO  epoch 0 training [time: 0.61s, train loss: 2.7709]
Fri 21 Feb 2025 12:08:24 INFO  Saving current: saved/NeuMF-Feb-21-2025_12-08-24.pth
Fri 21 Feb 2025 12:08:25 INFO  epoch 1 training [time: 0.46s, train loss: 2.7649]
…
